CNN on MNIST/Auto-encoder model on MNIST.pth (torch, 56727 bytes, 4 tensors)

weight f4 [8, 784]
-0.020529766 0.0125283785 -0.0071584284 0.0084632225 0.0063034184 0.00805714 0.03271156 0.023921221
0.006959919 0.007906381 -0.030738011 0.021503504 -0.2786381 -0.18476023 0.18637495 0.16978712
0.00863548 -0.01679748 0.028183963 -0.031842317 0.0032441542 -0.006856365 -0.01133872 0.018712167
-0.009306036 -0.0170512 -0.0319145 0.008551031 -0.024571791 0.026735395 0.01966536 -0.024126774
0.011392087 0.14109148 0.0007223259 -0.2678385 0.0115975095 -0.015453614 -0.039571013 -0.09120798
-0.037780944 -0.24370812 0.026630115 0.029613331 0.09126574 -0.13970828 0.088103876 -0.0636929
-0.033629704 -0.20123328 -0.13191293 -0.8638431 -0.009216815 0.0190905 -0.0047883913 0.0067397505
-0.0029502995 -0.0012458526 0.17669153 -0.0005562295 0.13272348 0.48823828 0.07931 0.035036497
-0.010985674 0.05813853 -0.033269554 -0.07500447 -0.04835949 0.03726853 -0.02172495 -0.045854323
0.01299744 -0.014273635 0.0027539756 0.010817002 -0.010235706 0.039458495 0.024834035 0.0031024476
0.067776345 -3.826635e-05 0.03499518 -0.031213362 -0.023882097 0.019440804 -0.0772542 0.086300224
0.2371018 -0.095437445 0.04560329 -0.07947265 0.0318014 0.0028342963 -0.04181131 -0.0153846685
-0.020070873 -0.041264903 0.0071222577 -0.014185849 -0.021918321 0.011468491 0.008259367 -0.02291969
-0.003967736 -0.004634586 -0.0072619403 -0.03898574 -0.005666899 0.022656966 0.23752065 0.01526973
0.0026012287 0.40725234 0.061726443 0.1303284 -0.10169717 -0.012666109 0.018641815 -0.004287339
-0.019864628 0.014228105 0.012134207 0.0027146973 -0.0074849194 -0.009451312 0.0017379029 0.0040478567
0.005406394 0.017808294 0.032533903 0.020331403 0.021531336 0.028306521 0.0090154605 -0.028478196
0.008991007 -0.041671883 0.0957378 -0.26571384 -0.029889556 0.012920495 0.20211442 0.08023582
-0.00064084854 0.0026734537 0.022486642 -0.025713898 0.011870708 -0.005975667 -0.0051359683 -0.003281284
-0.0055695884 -0.020525932 0.0012204256 0.00998186 0.03616117 0.043828756 0.05693182 0.05380364
0.038116507 0.023233112 -0.014997475 0.017952234 0.016033264 0.007978578 0.042174462 0.09771005
-0.026912563 -0.5035373 0.16666776 0.030838229 0.05181626 -0.019251328 0.0007919084 -0.013162517
0.003497811 -0.021512775 -0.017472124 -0.017201107 -0.022976482 -0.015707428 -0.0023185117 0.025592394
0.05036182 0.057935 0.06351624 0.059944954 0.0467876 0.029369902 0.02175645 0.008216144
0.000995984 0.026850292 0.006692414 0.03783589 -0.23911263 -0.015846567 0.068704136 -0.009797822
-0.008396522 -0.011268525 0.0082811555 -0.013267354 -0.00097283226 -0.0024290066 -0.0072656837 -0.02081921
-0.0033503636 0.0019556126 0.010904843 0.0128779365 0.036033567 0.06423245 0.06896421 0.053295817
0.054395173 0.044624943 0.03587682 0.020002171 -0.018414937 0.0065122475 0.065233625 -0.036389463
0.27208447 0.021990126 0.01359135 -0.046838537 0.021664709 -0.029456068 0.016727734 0.014288082
-0.0141821755 -0.0028771143 -0.0038255916 -0.0025755358 0.0024992719 0.0010147382 0.027012663 0.015311751
0.019496897 0.04041723 0.05295986 0.07198898 0.05846479 0.056454394 0.07444058 0.010812282
0.014073866 0.003867914 -0.051757675 -0.044658154 0.04552096 0.048104133 0.008237179 -0.008456236
00000000: 0a2e a8bc d443 4d3c 4091 eabb 54a9 0a3c
00000010: e88c ce3b 1802 043c 8ffc 053d 70f6 c33c
00000020: 0810 e43b c489 013c 48ce fbbc 1e28 b03c
00000030: a7a9 8ebe c931 3dbe 13d9 3e3e addc 2d3e
00000040: d47b 0d3c de9a 89bc 0ee2 e63c 176d 02bd
00000050: e09b 543b 5cab e0bb 0ac6 39bc 424a 993c
00000060: 5878 18bc f5ae 8bbc c7b8 02bd a019 0c3c
00000070: c84a c9bc 3004 db3c 4019 a13c 83a5 c5bc
00000080: e0a5 3a3c 497a 103e 785a 3d3a 2122 89be
00000090: 7b03 3e3c 2831 7dbc 3715 22bd 40cb babd
000000a0: 31c0 1abd 9f8e 79be 6627 da3c a897 f23c
000000b0: 88e9 ba3d b00f 0fbe ce6f b43d 6c71 82bd
000000c0: 4dbf 09bd 1910 4ebe 2f14 07be d224 5dbf
000000d0: 2002 17bc ae63 9c3c f0e7 9cbb 20d9 dc3b
000000e0: d059 41bb e04b a3ba a0ee 343e eecf 11ba
000000f0: aae8 073e 5efa f93e 486d a23d 6e82 0f3d
00000100: 42fd 33bc ab22 6e3d a845 08bd f29b 99bd
00000110: 9a14 46bd e3a6 183d 86f8 b1bc bed1 3bbd
00000120: 37f3 543c f7db 69bc 0b7c 343b cb39 313c
00000130: aab3 27bc 3b9f 213d bf70 cb3c 6f52 4b3b
00000140: 53ce 8a3d 2e80 20b8 1b57 0f3d 2ab3 ffbc
00000150: 63a4 c3bc 5242 9f3c 7337 9ebd 2cbe b03d
00000160: d0ca 723e b574 c3bd 84ca 3a3d 8fc2 a2bd
00000170: 2f42 023d 9abf 393b 5642 2bbd fa0f 7cbc
00000180: ac6b a4bc 6305 29bd d461 e93b c36b 68bc
00000190: 0d8e b3bc 56e6 3b3c 4c52 073c 13c2 bbbc
000001a0: c803 82bb badd 97bb 92f5 edbb 83af 1fbd
000001b0: 65b1 b9bb 1a9b b93c 9d38 733e e42d 7a3c
000001c0: 6079 2a3b 6183 d03e ded4 7c3d cf74 053e
000001d0: 9b46 d0bd 8385 4fbc b8b6 983c ce7c 8cbb
000001e0: 25bb a2bc ff1c 693c 8ece 463c 10e9 313b
000001f0: 0e44 f5bb add9 1abc 58ca e33a e2a3 843b
00000200: 1f28 b13b b3e2 913c 4542 053d 0b8e a63c
00000210: 7c62 b03c 14e3 e73c 95b5 133c 1b4b e9bc
00000220: 044f 133c 23b0 2abd 2e12 c43d a50b 88be
00000230: f1da f4bc 7cb0 533c 15f7 4e3e ad52 a43d
00000240: 9efe 27ba 1c35 2f3b e835 b83c f4a5 d2bc
00000250: 5c7d 423c 87cf c3bb a04b a8bb cf0a 57bb
00000260: 1881 b6bb 0026 a8bc b0f6 9f3a f58a 233c
00000270: bc1d 143d c885 333d 5731 693d 3561 5c3d
00000280: 0e20 1c3d 5e53 be3c f8b7 75bc 9010 933c
00000290: 3158 833c 95b8 023c 21bf 2c3d 351c c83d
000002a0: bc77 dcbc d2e7 00bf f4aa 2a3e 74a0 fc3c
000002b0: 493d 543d f6b4 9dbc 1398 4f3a 99a7 57bc
000002c0: 883b 653b 8f3b b0bc b321 8fbc 56e9 8cbc
000002d0: 2d39 bcbc ddac 80bc 2cf2 17bb 24a7 d13c
000002e0: 3248 4e3d 404d 6d3d cd14 823d d788 753d
000002f0: 5ba4 3f3d 2699 f03c 953a b23c 019d 063c
00000300: ad8b 823a 25f5 db3c 0a4c db3b cef9 1a3d
00000310: f1d9 74be a9d0 81bc c1b4 8c3d 0b87 20bc
00000320: 9191 09bc 9f9f 38bc afad 073c 515f 59bc
00000330: ab05 7fba f82f 1fbb f914 eebb 0c8d aabc
00000340: c691 5bbb bc29 003b 3aaa 323c fbfd 523c
00000350: ef97 133d 4e8c 833d 1c3d 8d3d b74c 5a3d
00000360: 79cd 5e3d a5c8 363d 93f3 123d 98db a33c
00000370: ecda 96bc b164 d53b 3599 853d 1e0d 15bd
00000380: a84e 8b3e a324 b43c 41ae 5e3c c4d9 3fbd
00000390: 307a b13c da4d f1bc 9a08 893c 8f18 6a3c
000003a0: 5b5c 68bc f88d 3cbb c7b6 7abb 52ca 28bb
000003b0: d3ca 233b f700 853a a949 dd3c 23de 7a3c
000003c0: f5b7 9f3c 8a8c 253d 70ec 583d f56e 933d
000003d0: c778 6f3d b93c 673d 4e74 983d ff25 313c
000003e0: 1396 663c d47c 7d3b dbff 53bd 78eb 36bd
000003f0: 3074 3a3d d708 453d 3cf5 063c 068c 0abc

bias f4 [8]
-2.2198186 -1.2580835 0.7123828 -1.682707 -1.4084641 -2.155709 -1.3953464 -2.3582814
00000000: 8211 0ec0 e108 a1bf b85e 363f f162 d7bf
00000010: 8d48 b4bf 23f7 09c0 b69a b2bf 15ee 16c0

weight f4 [784, 8]
4.2367763e-05 -5.0482686e-06 -2.3530953e-05 3.3433294e-05 1.1543618e-05 4.5591405e-05 6.653274e-06 -7.798986e-06
-1.3863636e-08 7.545113e-08 -1.7388626e-08 -1.8649473e-09 1.211164e-07 5.372728e-08 -3.1280152e-08 -1.2038999e-08
-4.340469e-07 -6.725822e-07 -3.5767812e-07 -1.2612134e-06 -1.2115447e-06 -2.650591e-06 -3.6669104e-07 2.1253504e-07
3.0720937e-08 -3.1986787e-09 1.5177942e-08 -7.203611e-09 7.495782e-09 5.0765614e-11 8.834364e-09 2.5658276e-09
0.0014171875 0.0023352401 0.01739567 -0.0016571388 0.018204574 0.012002587 -0.002034244 0.0036067937
-4.40078e-40 -2.21414e-40 -6.878e-42 2.10454e-40 4.1418e-41 2.21373e-40 -1.19863e-40 3.26937e-40
-4.4987155e-07 7.2644434e-07 -1.1530492e-06 -1.1251014e-05 -8.2014003e-07 -2.7890742e-06 -7.7897985e-06 -3.1671798e-06
8.102443e-07 6.4440355e-06 1.1765986e-05 -9.4504485e-06 1.6281272e-05 6.105023e-06 -2.4167177e-05 -8.12777e-06
6.165527e-05 4.2942655e-05 0.00020133036 -0.00018727858 -4.8179936e-07 -0.00012741036 7.350431e-05 -8.395973e-05
-7.2193565e-05 -7.097757e-05 -0.00012063382 -4.1599465e-05 4.671776e-06 -6.114873e-05 -0.00013558593 -9.2954986e-05
-4.735242e-07 5.274058e-07 -6.767193e-07 -1.0659132e-06 1.7015259e-07 8.870991e-07 3.0848042e-08 -3.6204545e-07
9.7682886e-08 -1.00455594e-07 2.4940135e-08 -2.626801e-07 -5.9974747e-07 6.182162e-08 3.6320128e-07 -1.656192e-07
-0.0047473623 0.0015976722 -0.0027959188 -0.0021348475 0.0028077476 -0.003554368 -0.0033395272 -0.0022656075
0.0012764775 0.00080054847 0.0011598477 0.0014511314 0.0066362848 -0.0019324982 -0.0052736336 0.0013995483
1.1131031e-05 7.449973e-06 -8.029295e-06 -1.0447869e-06 -1.0347261e-05 8.48095e-06 -1.1047753e-05 -4.1528683e-06
-7.863142e-06 2.5118372e-05 2.9814502e-05 2.931904e-05 4.09478e-05 -1.4077092e-05 -9.48916e-06 -9.71515e-07
-3.2788e-11 1.6553842e-12 -4.5935603e-11 2.6266479e-11 5.9358525e-11 -4.5105825e-11 -9.2557934e-11 -4.974958e-11
-0.0005779065 0.000107212225 0.00024421606 -0.00015444041 -0.00071802473 -0.0012888414 -0.00019910221 -0.0010432239
1.3379067e-06 -4.4103544e-06 6.104372e-06 6.900777e-05 7.1493487e-06 1.6995273e-05 4.697701e-05 1.933806e-05
2.67003e-40 1.7121e-41 -1.8878e-40 -1.15232e-40 -1.1767e-40 2.11942e-40 -2.66053e-40 9.8944e-41
3.5747e-41 7.3564e-41 -6.49e-41 3.34322e-40 -1.21707e-40 -1.38605e-40 2.36897e-40 -1.91106e-40
2.7893607e-09 -4.066296e-09 -1.0679756e-08 -3.0163028e-09 9.337929e-09 -2.6569018e-09 -1.47238355e-08 -4.5034945e-09
1.3737972e-06 1.5761594e-05 -2.2134836e-05 2.677153e-05 9.404008e-06 3.0710606e-05 -1.1874308e-06 -1.5568003e-06
-0.00043750805 -0.00011837449 -0.00033406843 -0.00014359376 -0.00016792768 0.00047647994 -0.00012545403 -0.00011506183
2.74313e-40 3.5692e-41 1.31829e-40 6.057e-41 -2.68653e-40 9.2746e-41 -3.23336e-40 1.04618e-40
-1.1125948e-08 -5.0818656e-09 8.400242e-09 1.1223494e-07 9.0022425e-09 2.5221073e-08 7.101009e-08 4.758801e-08
1.3049856e-08 -1.3226753e-07 -1.0736236e-07 3.9096528e-07 -9.0459864e-08 1.9832257e-08 3.494271e-08 -3.2395945e-07
-8.186448e-05 -0.00097542076 -0.0005083338 -0.00034572362 -0.0013183365 7.793284e-05 0.000671458 -2.6963535e-05
-2.9371998e-09 1.6025689e-10 -5.7355254e-10 3.562153e-09 3.9474096e-10 1.5337426e-10 2.0702187e-09 -2.8518947e-09
-3.894142e-28 -7.0089935e-29 -1.9976377e-28 -1.7754977e-28 -7.801136e-30 -1.4000796e-28 -6.134469e-28 2.0021089e-29
-2.6109774e-08 2.606114e-08 8.0885314e-08 2.6882834e-08 -5.0440523e-08 1.8292507e-08 8.546719e-08 3.8685307e-08
-1.16158e-40 5.7987e-41 2.40127e-40 2.20063e-40 3.2304e-41 5.061e-41 3.81e-43 -1.2827e-41
00000000: 0ab4 3138 4c64 a9b6 5664 c5b7 ba3a 0c38
00000010: 76ab 4137 6639 3f38 303f df36 64d8 02b7
00000020: ea2c 6eb2 b307 a233 fe5d 95b2 8028 00b1
00000030: 390c 0234 c5c1 6633 e458 06b3 14d4 4eb2
00000040: f406 e9b4 7f8b 34b5 e806 c0b4 f646 a9b5
00000050: 5c9c a2b5 cee0 31b6 a2dd c4b4 3035 6434
00000060: 07f2 0333 c0cf 5bb1 a660 8232 a283 f7b1
00000070: ccc6 0032 0045 5f2e f2c5 1732 8452 3031
00000080: ecc0 b93a d40a 193b 5d81 8e3c 5a34 d9ba
00000090: c221 953c 80a6 443c f350 05bb f55f 6c3b
000000a0: c2ca 0480 3669 0280 2c13 0080 a94a 0200
000000b0: 7573 0000 1969 0200 214e 0180 5e8f 0300
000000c0: e085 f1b4 e000 4335 78c2 9ab5 bdc2 3cb7
000000d0: 9827 5cb5 ee2b 3bb6 eeb0 02b7 bc8b 54b6
000000e0: 907f 5935 d839 d836 8666 4537 5e8d 1eb7
000000f0: c493 8837 c0d9 cc36 9eba cab7 825c 08b7
00000100: ec4c 8138 531d 3438 351c 5339 3660 44b9
00000110: 0055 01b5 7599 05b9 5326 9a38 8913 b0b8
00000120: a066 97b8 cbd9 94b8 cafc fcb8 167b 2eb8
00000130: 40c2 9c36 f93c 80b8 122c 0eb9 d4f0 c2b8
00000140: ac38 feb4 0d93 0d35 cca7 35b5 8010 8fb5
00000150: 30b3 3634 fc20 6e35 c87d 0433 265f c2b4
00000160: bcc5 d133 0cba d7b3 f03b d632 7a06 8db4
00000170: 55fe 20b5 ccc2 8433 01fe c234 0fd5 31b4
00000180: c38f 9bbb fc68 d13a bc3b 37bb cce8 0bbb
00000190: 3002 383b 66f0 68bb f8db 5abb 967a 14bb
000001a0: 7a4f a73a e6db 513a 0806 983a e433 be3a
000001b0: 3175 d93b e14b fdba 72ce acbb 0c71 b73a
000001c0: 6abf 3a37 c8fa f936 8fb5 06b7 9b3a 8cb5
000001d0: 2699 2db7 6749 0e37 bd59 39b7 de58 8bb6
000001e0: f0eb 03b7 4bb5 d237 281a fa37 29f2 f537
000001f0: 5ebf 2b38 a62c 6cb7 a233 1fb7 0065 82b5
00000200: 0234 10ae 80f9 e82b e406 4aae da0a e72d
00000210: e187 822e a560 46ae 7c89 cbae 0ccd 5aae
00000220: a67e 17ba 20d7 e038 200a 8039 48f1 21b9
00000230: d339 3cba 57ee a8ba 18c6 50b9 c9bc 88ba
00000240: 2092 b335 a8fc 93b6 28d4 cc36 44b8 9038
00000250: 70e4 ef36 1291 8e37 2e09 4538 2b38 a237
00000260: 4ce8 0200 ba2f 0000 3e0e 0280 3841 0180
00000270: 0448 0180 cf4e 0200 a6e5 0280 d113 0100
00000280: a663 0000 11cd 0000 eab4 0080 f4a3 0300
00000290: 4553 0180 6082 0180 5f94 0200 ba14 0280
000002a0: f4ae 3f31 85b7 8bb1 107a 37b2 5c47 4fb1
000002b0: a56c 2032 b694 36b1 1df4 7cb2 28bd 9ab1
000002c0: 5063 b835 c437 8437 33ae b9b7 6c93 e037
000002d0: e8c5 1d37 43cf 0038 d05f 9fb5 40f3 d0b5
000002e0: 5661 e5b9 d23f f8b8 e825 afb9 a891 16b9
000002f0: be15 30b9 0ed0 f939 4f8c 03b9 594d f1b8
00000300: acfc 0200 7f63 0000 7c6f 0100 d8a8 0000
00000310: e5ec 0280 8a02 0100 5485 0380 a223 0100
00000320: 7024 3fb2 909c aeb1 a850 1032 d005 f133
00000330: 48a8 1a32 baa5 d832 367e 9833 9263 4c33
00000340: e031 6032 6c05 0eb4 158f e6b3 dce5 d134
00000350: d642 c2b3 985b aa32 ea13 1633 a6ec adb4
00000360: a8ae abb8 61b3 7fba b441 05ba 3d42 b5b9
00000370: 08cc acba e06f a338 c904 303a c02f e2b7
00000380: c4d7 49b1 4e34 302f 2ca8 1db0 0fca 7431
00000390: da02 d92f 04a3 282f ac43 0e31 10fb 43b1
000003a0: 11d2 f691 f8b2 b190 0d3b 7d91 3212 6191
000003b0: d039 1e8f 2e7b 3191 ba68 4292 b809 cb0f
000003c0: 0048 e0b2 0edd df32 2cb3 ad33 faeb e632
000003d0: f1a3 58b3 a621 9d32 168a b733 f226 2633
000003e0: cd43 0180 a5a1 0000 609d 0200 7265 0200
000003f0: 0d5a 0000 158d 0000 1001 0000 c223 0080

bias f4 [784]
1.4130897e-05 -6.63931e-08 -2.641729e-07 -4.133267e-09 0.008591278 8.9792e-41 -3.9375177e-06 -2.4573561e-05
-7.938659e-05 -9.986607e-05 2.9054348e-07 -3.2241428e-07 -0.0019284791 -0.002256373 -2.0684183e-08 -8.473237e-06
-4.909379e-11 -0.0011085529 2.5136444e-05 1.07432e-40 -7.6438e-41 -3.4800527e-09 1.9952866e-05 1.1093463e-05
-3.3677e-41 5.128826e-08 -1.8618138e-09 -0.00046307695 2.2451827e-09 -8.248226e-29 2.7946207e-08 -2.4145e-40
-1.62182e-07 -7.395755e-10 -0.00025750103 -0.000462112 -0.00029865417 -9.303817e-05 0.00028129414 9.24512e-05
0.002689187 0.0031339834 0.0015520127 0.0019821478 0.0025429185 0.0027781161 -0.0005366572 0.00084973645
-1.7039984e-05 -0.0003244943 -0.0019228833 0.003023494 7.003109e-05 5.291245e-05 2.7256676e-05 5.6709592e-05
-3.9695933e-06 -2.6763852e-05 -8.648555e-09 -2.2451326e-07 -9.261804e-05 -6.8367126e-06 0.0006409523 0.0022703605
0.002569229 0.0064552343 0.015462011 0.014012778 0.012494337 0.0029333148 -0.00042453106 0.00993833
0.028004674 0.037432723 0.036507033 0.03393228 0.022131229 0.0137448665 0.008356908 0.0021270658
-7.8772995e-05 -6.081979e-08 -7.0300468e-09 -1.942716e-12 0.0003106426 -2.23448e-40 8.851767e-09 6.0048637e-09
3.393863e-05 5.816939e-06 0.0014672735 0.0013907606 0.016591417 0.03310452 0.047526393 0.06398795
0.06946511 0.06483147 0.05612519 0.07292935 0.09806081 0.13062777 0.1346339 0.11082524
0.07529436 0.044247698 0.023511656 0.0067242156 0.0030494747 -0.00011910761 3.913811e-13 -2.6711963e-05
3.20346e-39 -1.6977145e-05 -0.00020090054 0.0038556915 0.0037028403 0.004963968 0.0066775274 0.022327593
0.04487307 0.07638728 0.117632955 0.15306982 0.17665501 0.18969452 0.2149561 0.24756333
0.24688323 0.24352397 0.20299248 0.13788997 0.07830846 0.03966193 0.016150435 0.008168068
0.006688607 -0.0004454638 -0.00050281186 -4.6182002e-05 -2.0132065e-05 2.442615e-10 3.1132065e-05 0.003828273
0.002232954 0.006271756 0.019772802 0.040514022 0.06914765 0.09089526 0.08126788 0.019622335
-0.07598244 -0.13630962 -0.12761764 -0.06316666 -0.03390383 -0.0805502 -0.14960559 -0.17734013
-0.15172538 -0.111662075 -0.075774185 -0.03509675 -0.0064639053 -0.0020125778 0.003967367 -5.846981e-06
-8.340039e-08 0.0007833112 5.2773976e-06 0.006485726 0.0076406635 0.018105991 0.033901952 0.056317486
0.055772424 0.014592391 -0.15926209 -0.4279873 -0.7010878 -0.8145153 -0.73709595 -0.5693599
-0.5440793 -0.66030633 -0.72815967 -0.63994247 -0.48867202 -0.32077548 -0.18422598 -0.09102441
-0.031334154 -0.004405787 0.00023031549 -2.7419487e-06 -4.25935e-05 0.00024863612 0.001494563 0.00902007
0.019301226 0.043732803 0.080821276 0.09446948 0.065479875 -0.0812242 -0.4167178 -0.83929193
-1.109105 -0.9611551 -0.4985298 -0.07467613 -0.11377526 -0.5687293 -0.91669947 -0.88319725
-0.66617876 -0.43405402 -0.2384503 -0.10214638 -0.030679917 0.00091334654 0.00074641476 1.0230146e-05
-6.265555e-05 0.00512763 0.008218036 0.027909122 0.06011311 0.103272356 0.15431847 0.17102046
0.10338254 -0.14978667 -0.5921347 -0.9840051 -0.899366 -0.24548648 0.53109187 0.97473806
0.94008726 0.381502 -0.37644246 -0.7295395 -0.6298581 -0.42063934 -0.23081341 -0.08397174
-0.017788539 0.006573033 0.00072324945 1.8939469e-05 -4.2866495e-06 0.010675624 0.0240301 0.05094188
00000000: be13 6d37 fe93 8eb3 a6d3 8db4 9a04 8eb1
00000010: 6fc2 0c3c 4efa 0000 051f 84b6 5223 ceb7
00000020: 5a7c a6b8 306f d1b8 fefb 9b34 4818 adb4
00000030: 05c5 fcba a8df 13bb 00ad b1b2 4728 0eb7
00000040: b2ea 57ae dd4c 91ba 1adc d237 7a2b 0100
00000050: 14d5 0080 bc25 6fb1 7460 a737 101e 3a37
00000060: e15d 0080 0a48 5c33 c0e2 ffb0 23c9 f2b9
00000070: ac49 1a31 0c1e d190 5c0e f032 10a1 0280
00000080: 4024 2eb4 004b 4bb0 3401 87b9 9f47 f2b9
00000090: af94 9cb9 7d1d c3b8 a97a 9339 5ce2 c138
000000a0: 123d 303b 8463 4d3b e86c cb3a ece6 013b
000000b0: 18a7 263b 0e11 363b 74ae 0cba d9c0 5e3a
000000c0: 16f1 8eb7 e320 aab9 4209 fcba d025 463b
000000d0: a8dd 9238 50ee 5d38 44a5 e437 76db 6d38
000000e0: 8c32 85b6 ef82 e0b7 bf94 14b2 bc11 71b4
000000f0: ee3b c2b8 ea66 e5b6 9505 283a 54ca 143b
00000100: 8360 283b 6e86 d33b 6054 7d3c da95 653c
00000110: 0cb5 4c3c db3c 403b 9893 deb9 61d4 223c
00000120: 0f6a e53c 0e53 193d 6688 153d 93fc 0a3d
00000130: 8d4c b53c 2632 613c 6aeb 083c 3e66 0b3b
00000140: ee32 a5b8 089c 82b3 f28c f1b1 dcb4 08ac
00000150: bedd a239 e26e 0280 7c12 1832 5753 ce31
00000160: 5459 0e38 202f c336 8751 c03a 2f4a b63a
00000170: b9ea 873c 9b98 073d 09ab 423d 1d0c 833d
00000180: b943 8e3d 5dc6 843d 87e3 653d fc5b 953d
00000190: 1bd4 c83d 49c3 053e 78dd 093e 58f8 e23d
000001a0: ee33 9a3d 133d 353d 849b c03c cf56 dc3b
000001b0: b2d9 473b 69c9 f9b8 f653 dc2a 8113 e0b7
000001c0: f1e1 2200 246a 8eb7 d4a8 52b9 c5af 7c3b
000001d0: 5aab 723b c8a8 a23b 29cf da3b 5be8 b63c
000001e0: d3cc 373d ef70 9c3d 8ce9 f03d 56be 1c3e
000001f0: 0de5 343e 483f 423e 741d 5c3e 3e81 7d3e
00000200: f5ce 7c3e 595e 793e 43dd 4f3e 0733 0d3e
00000210: 3060 a03d 8c74 223d eb4d 843c 5cd3 053c
00000220: 1a2c db3b 248d e9b9 22cf 03ba 8cb3 41b8
00000230: 48e1 a8b7 c048 862f cd93 0238 c3e3 7a3b
00000240: c056 123b 4d83 cd3b 92fa a13c 08f2 253d
00000250: 489d 8d3d 4b27 ba3d c66f a63d 05bf a03c
00000260: ae9c 9bbd c094 0bbe 33ae 02be 865d 81bd
00000270: bede 0abd 81f7 a4bd 3532 19be a798 35be
00000280: e65d 1bbe 16af e4bd 7f2f 9bbd 9cc1 0fbd
00000290: 2bcf d3bb 74e5 03bb b000 823b 2f31 c4b6
000002a0: d919 b3b3 2057 4d3a 8014 b136 3786 d43b
000002b0: 885e fa3b 0453 943c c6dc 0a3d 2aad 663d
000002c0: a071 643d ed14 6f3c 9a15 23be 2721 dbbe
000002d0: 7d7a 33bf 1384 50bf 52b2 3cbf 92c1 11bf
000002e0: c848 0bbf d609 29bf ac68 3abf 45d3 23bf
000002f0: 3833 fabe af3c a4be bca5 3cbe 026b babd
00000300: 3e58 00bd 6c5e 90bb d880 7139 5202 38b6
00000310: 6ca6 32b8 605b 8239 36e5 c33a eac8 133c
00000320: 9b1d 9e3c 2b21 333d a085 a53d 3779 c13d
00000330: 501a 863d e058 a6bd 095c d5be d6db 56bf
00000340: 27f7 8dbf 430e 76bf 4c3f ffbe cdef 98bd
00000350: 0103 e9bd 3e98 11bf d1ac 6abf 3719 62bf
00000360: b18a 2abf 543c debe 512c 74be 1f32 d1bd
00000370: 7354 fbbc a66d 6f3a 0cab 433a 24a2 2b37
00000380: f165 83b8 ae05 a83b f1a4 063c aca1 e43c
00000390: 2a39 763d 7580 d33d a905 1e3e fd1f 2f3e
000003a0: 3aba d33d ad61 19be 2496 17bf c2e7 7bbf
000003b0: da3c 66bf cf60 7bbe a3f5 073f 6f88 793f
000003c0: 8fa9 703f 3b54 c33e 11bd c0be 1ac3 3abf
000003d0: 613e 21bf 0a5e d7be 5a5a 6cbe 60f9 abbd
000003e0: 45b9 91bc 9962 d73b 7398 3d3a 33e0 9e37
000003f0: 0ad6 8fb6 d0e8 2e3c c6da c43c 6fa8 503d
