CNN on MNIST/MNIST_trained_model.pth (torch, 34791 bytes, 4 tensors)

weight f4 [4, 1, 3, 3]
0.21277311 0.84635335 0.1495471 -1.508111 0.52969927 0.9343524 -1.3781677 -0.27206075
1.1146258 -1.6882509 -0.9540083 0.82057935 -1.434012 1.0625653 1.15758 0.45332047
1.1512619 -0.26644483 0.37497494 0.19530281 0.13036421 0.56615454 0.1907932 0.5764125
0.41363662 0.5345231 0.5262859 -1.2189391 -1.7458897 -1.4341708 0.7040796 0.28796434
-0.2697287 1.0641807 1.2710347 0.683286
00000000: 32e1 593e 9daa 583f e022 193e c809 c1bf
00000010: 5f9a 073f b831 6f3f cd67 b0bf 8c4b 8bbe
00000020: 0fac 8e3f 9b18 d8bf e339 74bf 7d11 523f
00000030: b58d b7bf 2402 883f 952b 943f 9f19 e83e
00000040: 8d5c 933f 756b 88be b7fc bf3e 76fd 473e
00000050: 327e 053e 81ef 103f 4b5f 433e c58f 133f
00000060: 2ec8 d33e 82d6 083f acba 063f 3206 9cbf
00000070: 5079 dfbf e992 b7bf 903e 343f 1070 933e
00000080: e119 8abe 1337 883f 44b1 a23f d5eb 2e3f

bias f4 [4]
-0.33563218 0.25660887 0.10298747 -0.0043950304
00000000: fbd7 abbe 3d62 833e 18eb d23d 3004 90bb

weight f4 [10, 784]
0.020767532 0.03741921 -0.55874443 0.2973902 -1.4531637 0.009427497 -0.32096574 -0.5012187
-0.4379833 -1.3032886 -1.0840205 -0.96669555 -0.6088416 -0.022562895 -0.02453603 0.20046876
-1.1905167 -0.35176748 -0.12192741 0.060145102 -0.35122544 -0.15108094 -0.37047166 -0.7789129
-0.26078555 0.8535068 -0.84535706 -0.067878634 -0.18240927 -0.016836451 -0.15326342 -0.17127396
-0.27080944 -0.063251354 -0.42227086 -0.0562948 0.26235253 0.24765252 0.15429816 0.38860494
-0.3316547 -0.46859345 -0.16502747 -1.0607641 -0.17529848 -0.32299072 -0.14225012 -0.33627334
-0.39325288 -0.3171571 0.24298985 0.29459777 0.16777277 0.72081524 0.09248024 -1.0783665
0.66076106 -0.7304424 0.0025441328 0.113288045 -0.027257305 -0.058277905 0.20365839 0.02066523
0.31256378 0.5269493 0.5076505 0.56513685 1.2450631 0.9280617 0.6181918 -0.6160157
0.108453445 -0.08226882 -0.08051081 0.04740412 0.1917157 0.3546394 0.3156743 0.6880531
0.35423246 0.7076556 0.67665964 -0.5814945 -1.1285821 0.120974004 0.10558929 0.12237483
-0.17579773 0.24329947 0.23501799 0.38746426 0.8975716 0.4368878 0.50258017 0.43464288
0.43221024 -0.37436256 -0.59202975 -0.025840335 -0.06553473 0.020551534 0.13601647 0.12050498
0.5982677 0.08733083 0.4865462 0.2858252 0.074752256 0.46137443 0.43808204 -0.33043373
-0.9223641 0.044624336 0.1578202 0.47553578 0.18604666 0.2062696 0.059902765 -0.10689971
0.09661872 0.15433745 -0.11786395 -0.0106315315 -0.07915159 -0.26116183 -0.40032446 0.3468113
0.21050285 0.36498013 0.3494832 0.2872484 0.13693976 -0.3313375 0.03334966 -0.15800954
0.0014460885 -0.07000433 -0.44807103 -0.9131925 -0.6733737 -0.014799788 0.2037656 0.013655352
0.23947085 0.35465533 0.2863726 -0.097897485 -0.309013 -0.4661541 -1.115447 -0.7057479
-0.93373084 -0.5062553 -0.8441498 -0.026609503 0.10953586 0.23389111 -0.24522457 0.15621041
0.138236 -0.23824416 -0.79894537 -1.1249679 -0.6070475 -0.71824616 -1.2261482 0.2404247
-0.013546466 -0.7301536 0.0692928 0.29879418 0.6052117 -0.020553235 -0.06290823 -0.48582396
-0.6235379 -0.7113381 -0.7784944 -0.69687104 -1.0766174 0.28123012 0.028809903 -0.8861785
-0.11865795 -0.3638323 -0.3450762 -1.1361665 -0.55701786 -0.4011815 -0.53110194 -0.28177986
-0.734614 -0.77124834 0.23375171 -0.0239537 0.060930066 0.13730368 0.13643378 0.07480805
0.0804926 0.13794592 0.08415101 0.04282722 -0.0019920603 0.077912696 0.11191768 0.10885623
0.12802163 0.07672942 0.11411728 0.098560415 0.009553645 -0.040393244 0.2855667 -0.317755
-0.03798683 -0.00959481 -0.1618076 -0.14208011 0.15802492 -0.13472018 0.1498737 0.102933206
0.07075313 0.10209237 0.084686846 0.045386247 -0.19953239 -0.17778893 0.12902258 0.046989314
0.099834144 -0.08627539 0.0012670318 -0.08472014 -0.14847943 -0.017011443 0.09786092 0.07007496
-0.18802911 -0.10282944 0.2195861 -0.117551714 -0.18143196 -0.13783972 -0.06983161 -0.33589813
-0.3019502 -0.299597 -0.26671183 0.32375923 0.11371239 -0.003931287 0.13954677 0.051307417
00000000: ac20 aa3c e344 193d e009 0fbf 8743 983e
00000010: 4501 babf ca75 1a3c 9f55 a4be de4f 00bf
00000020: 593f e0be 29d2 a6bf 2fc1 8abf 5c79 77bf
00000030: 0bdd 1bbf d2d5 b8bc c9ff c8bc af47 4d3e
00000040: da62 98bf de1a b4be 14b5 f9bd b65a 763d
00000050: d2d3 b3be f6b4 1abe 76ae bdbe d666 47bf
00000060: af85 85be 6c7f 5a3f 5269 58bf f403 8bbd
00000070: 7fc9 3abe 99ec 89bc 16f1 1cbe 7162 2fbe
00000080: 89a7 8abe ed89 81bd e333 d8be 6095 66bd
00000090: 1253 863e 9f98 7d3e 5600 1e3e 3af7 c63e
000000a0: a5ce a9be 7beb efbe f6fc 28be 1ec7 87bf
000000b0: 7281 33be 0a5f a5be 04aa 11be 052c acbe
000000c0: 7158 c9be 6a62 a2be 55d2 783e 85d5 963e
000000d0: a0cc 2b3e 5987 383f 4866 bd3d ea07 8abf
000000e0: a327 293f 46fe 3abf 77bb 263b 9003 e83d
000000f0: b64a dfbc d0b4 6ebd d38b 503e 214a a93c
00000100: 5c08 a03e 26e6 063f 62f5 013f cfac 103f
00000110: 3a5e 9f3f 7495 6d3f d141 1e3f 34b3 1dbf
00000120: d71c de3d 8e7c a8bd dae2 a4bd d32a 423d
00000130: 1f51 443e 4c93 b53e 10a0 a13e 3f24 303f
00000140: f55d b53e eb28 353f 9139 2d3f d3dc 14bf
00000150: 6175 90bf 38c1 f73d 333f d83d a89f fa3d
00000160: 5204 34be 7f23 793e 8ea8 703e b761 c63e
00000170: 41c7 653f c2af df3e 18a9 003f 8389 de3e
00000180: a94a dd3e 73ac bfbe 438f 17bf 1caf d3bc
00000190: 1337 86bd b15b a83c e747 0b3e 51cb f63d
000001a0: 1228 193f 82da b23d 951c f93e ae57 923e
000001b0: b617 993d 4539 ec3e 4a4c e03e 9c2e a9be
000001c0: 0e20 6cbf 02c8 363d 9e9b 213e 6d79 f33e
000001d0: 0483 3e3e 5738 533e 9a5c 753d 3cee dabd
000001e0: 09e0 c53d a30a 1e3e a862 f1bd e02f 2ebc
000001f0: 3b1a a2bd 01b7 85be 54f7 ccbe 4091 b13e
00000200: 0f8e 573e adde ba3e 76ef b23e 3912 933e
00000210: f039 0c3e 12a5 a9be a799 083d 41cd 21be
00000220: ae8a bd3a 6e5e 8fbd 9169 e5be fcc6 69bf
00000230: 3862 2cbf cf7a 72bc eea7 503e b3ba 5f3c
00000240: d937 753e 6295 b53e 6e9f 923e 7a7e c8bd
00000250: f436 9ebe c0ab eebe f8c6 8ebf e5ab 34bf
00000260: fc08 6fbf f399 01bf 341a 58bf 2cfc d9bc
00000270: 5654 e03d 2781 6f3e 261c 7bbe 9ff5 1f3e
00000280: bd8d 0d3e 47f6 73be af87 4cbf f3fe 8fbf
00000290: 7767 1bbf fbde 37bf 6df2 9cbf e431 763e
000002a0: fff1 5dbc 59eb 3abf 62e9 8d3d 8dfb 983e
000002b0: 27ef 1a3f 425f a8bc 08d6 80bd ebbd f8be
000002c0: 2ea0 1fbf 411a 36bf 694b 47bf 2466 32bf
000002d0: 99ce 89bf 65fd 8f3e bf02 ec3c 98dc 62bf
000002e0: f002 f3bd 3a48 babe d4ad b0be e76d 91bf
000002f0: b998 0ebf a967 cdbe 4cf6 07bf 7345 90be
00000300: aa0f 3cbf 8870 45bf 9c5c 6f3e 8d3a c4bc
00000310: ce91 793d 5699 0c3e 4cb5 0b3e f734 993d
00000320: 4ed9 a43d b241 0d3e 5d57 ac3d 986b 2f3d
00000330: 3a8d 02bb b190 9f3d 1935 e53d 04f0 de3d
00000340: 1a18 033e 5024 9d3d 52b6 e93d 0bda c93d
00000350: e486 1c3c 6373 25bd cc35 923e c9b0 a2be
00000360: 1498 1bbd 8d33 1dbc e4b0 25be 737d 11be
00000370: 49d1 213e 16f4 09be 7e78 193e a5ce d23d
00000380: 04e7 903d ce15 d13d 4c70 ad3d eee6 393d
00000390: 3852 4cbe 4d0e 36be 7f1e 043e de77 403d
000003a0: d875 cc3d 27b1 b0bd 8812 a63a c181 adbd
000003b0: fe0a 18be 955b 8bbc 4e6b c83d 7683 8f3d
000003c0: b48a 40be 3e98 d2bd 2edb 603e f4be f0bd
000003d0: 4dc9 39be db25 0dbe e003 8fbd d7fa abbe
000003e0: 3799 9abe c764 99be 748e 88be c5c3 a53e
000003f0: 0be2 e83d 07d2 80bb 59e5 0e3e ba27 523d

bias f4 [10]
0.117275834 0.52300256 0.11813024 -0.16349548 -0.078351095 0.26499566 -0.061915305 0.14453562
-0.3993152 -0.16609868
00000000: 502e f03d 7fe3 053f 44ee f13d 5c6b 27be
00000010: 8a76 a0bd 83ad 873e e79a 7dbd 2501 143e
00000020: 0b73 ccbe c615 2abe
