Classification on SDSS boss specObj data/classification on SDSS Boss object type.pth (torch, 5463 bytes, 6 tensors)

weight f4 [18, 7]
000000 db bf 42 be c0 34 c4 be 06 47 74 be 05 1b bc be
       -0.190185 -0.38321495 -0.23855218 -0.36739364
000010 3c 0d 68 be e3 8a 1f be 34 ef 42 bd 47 4e 9f 3f
       -0.22661299 -0.15580325 -0.047591403 1.2445763
000020 71 fd 39 3f f6 d9 36 3f af c0 c7 3e d7 d1 be 3e
       0.72652346 0.7142633 0.39014193 0.3726947
000030 72 3c 92 3e 98 3e db be 96 af 6c 3e ea 19 c9 bc
       0.2856174 -0.42821193 0.23113856 -0.02454849
000040 ee ed fc be 32 a3 9e 3d 59 8c 99 3e 20 f5 06 3e
       -0.49400276 0.07745971 0.2998989 0.13179445
000050 91 58 69 3e 0e 7b 48 3f af a4 38 3f 14 88 ed bc
       0.22787692 0.78312767 0.7212629 -0.028995551
000060 68 0c 06 3f 8a 77 25 3e 99 9f a0 3e 71 0c e8 3d
       0.5236268 0.16158882 0.31371763 0.11330498
000070 d0 85 61 be 8c 5a 69 bd a7 79 dd be ab 25 ff bc
       -0.22023702 -0.056971118 -0.43256876 -0.031145891
000080 c6 d9 e2 3e b6 81 05 3f a8 42 7c 3e 77 ea 9b 3e
       0.44306773 0.5215105 0.24634802 0.3045232
000090 9a de 3d 3e 30 00 1c be 48 ef 02 be c1 59 bb 3e
       0.18541947 -0.15234447 -0.12786591 0.36591914
0000a0 0b f1 28 be a8 d9 d5 bd 10 85 f6 bd 35 13 95 3e
       -0.164982 -0.10441905 -0.120370984 0.29116216
0000b0 ce e5 77 be d0 6e 4c 3d 40 e1 b6 bd 37 25 1c be
       -0.24208757 0.049910367 -0.08929682 -0.15248571
0000c0 b8 e5 1e be 10 fe 15 bd 64 fe 2a 3d 5f 26 06 bf
       -0.15517318 -0.036619246 0.041746512 -0.524023
0000d0 91 e7 52 be 8d 1e 0f 3e 8f eb cf 3e 8c 29 66 3e
       -0.20596148 0.13976498 0.40609404 0.22476786
0000e0 41 a8 f9 3e 99 c6 e6 3e b3 6c d6 3d 0c c5 0e 3e
       0.4876118 0.45073393 0.104699515 0.13942355
0000f0 6d 00 29 be db 96 ae 3e 8e 1a d7 bb f8 d1 49 be
       -0.16504069 0.3409947 -0.006564445 -0.19709003
000100 de e1 89 3e 62 06 a2 bc 1a 92 a4 be bd a0 8e bd
       0.26930135 -0.019778434 -0.32142717 -0.06964252
000110 b2 c3 30 3d 83 54 b6 bd da 72 1e bf 93 a9 f0 be
       0.04315538 -0.08902838 -0.61894 -0.47004375
000120 04 a9 dc be a0 b2 7d be c1 35 d2 3e b8 e0 b5 3e
       -0.430977 -0.24775171 0.41056636 0.3552301
000130 0b 10 91 3e 23 49 6c be 54 cf 61 be 47 09 b6 be
       0.28332552 -0.23074774 -0.22051746 -0.35553953
000140 60 49 ab bd fc 6d ee 3d 4f 33 91 3e 75 2c a2 be
       -0.083636045 0.116420716 0.28359458 -0.31674543
000150 13 2f a6 3e c0 d6 8a bc bc 19 9f bd 32 d4 41 3e
       0.3245779 -0.016948104 -0.0776858 0.18928602
000160 b0 0e 29 3d 8d 6e 81 be a6 a8 a5 be c5 0f 96 be
       0.041273773 -0.25279656 -0.3235523 -0.29308906
000170 e2 0c 4e 3e 5a c2 7a 3e a9 47 c0 be bc 86 c0 bd
       0.20122102 0.24488202 -0.37554672 -0.094006985
000180 fc e5 ed bd cf b2 92 be 62 60 71 3f fe 31 08 3f
       -0.11616132 -0.28652045 0.94287694 0.5320128
000190 e6 d0 f3 3e b2 dd 4a 3f c2 2c aa be 65 6b 17 bf
       0.47620314 0.7924453 -0.33237273 -0.59148246
0001a0 0e 64 0e 3f ba 76 24 be c7 03 c0 be 58 3f d9 3d
       0.5562142 -0.16060916 -0.37502882 0.10607785
0001b0 d7 13 29 be e7 e2 ab 3e d0 12 8b be a7 c0 a1 be
       -0.16511475 0.3357155 -0.2716279 -0.31592295
0001c0 dd 03 77 bf 2b f6 0d bf 97 b6 17 be 57 16 3b 3e
       -0.9649027 -0.5545375 -0.14815746 0.1827024
0001d0 c0 dd c2 be bd 33 da bc 11 fe 18 3f 8a f8 e4 bc
       -0.38059807 -0.026635999 0.59762675 -0.027950544
0001e0 30 51 64 be 66 db 4c be 3a 2d d1 be 14 41 96 3e
       -0.22296596 -0.20005569 -0.40854818 0.29346526
0001f0 1e b0 f8 3e 8e d0 1a be
       0.48571867 -0.1511862

bias f4 [18]
000000 c7 c2 96 3d 4d 9b ea be 78 d8 2f 3e 4a 35 11 3e
       0.073613696 -0.4582161 0.1717242 0.14180484
000010 fa 3e 85 bc 45 49 70 be 0e b7 aa be 3c 4f 4b 3f
       -0.016265381 -0.2346545 -0.33342785 0.7941778
000020 fa 70 2e 3f 41 ac be be 41 90 e9 3e 00 7d a4 bb
       0.6814114 -0.37240794 0.4561787 -0.005019784
000030 b3 6d 96 3e 3e 28 44 be 5f e6 2b bf 72 3e 46 be
       0.2938057 -0.19155976 -0.67148393 -0.19359758
000040 a3 62 12 bf b9 90 73 3f
       -0.5718176 0.95142704

weight f4 [9, 18]
000000 17 17 04 3e a6 68 96 bd b0 24 27 bc 62 c0 64 be
       0.12899433 -0.07344179 -0.010201618 -0.22339013
000010 b2 ff 8e 3d b0 a0 0d bc cc ae 47 3d 64 21 3d be
       0.06982364 -0.008644268 0.048750684 -0.18469769
000020 ff fb 43 3e 50 b3 da bc 18 f3 97 3c 98 f7 86 bc
       0.19139098 -0.026696831 0.018548533 -0.016475484
000030 b4 26 72 3d c0 ab b9 bd ea 1a ac 3d c8 e1 7e bd
       0.05911894 -0.09065962 0.08403571 -0.06222704
000040 b0 62 f5 bd dc 86 7e bd cb 9c c5 bd c8 5f 0f bf
       -0.11981714 -0.06214033 -0.096490465 -0.56005526
000050 8d 12 60 3e db b6 23 3e 11 eb bf 3e 52 27 d9 bd
       0.21882077 0.15987723 0.3748403 -0.10603203
000060 a2 bf cc 3d b9 9a c9 3c 0c 20 d3 bd 5f 17 c6 3d
       0.099974886 0.02460991 -0.10308847 0.096724264
000070 c8 0b 18 3f 1d 98 59 3e 34 90 13 3d 6a f0 c5 3d
       0.59392977 0.21249433 0.036026195 0.09664996
000080 d9 03 03 bf 13 76 5e 3e 2a 63 ca 3e 03 ef 3f 3f
       -0.51177746 0.21724729 0.3952878 0.7497408
000090 9a 0f 52 be 30 aa 87 bc 34 e9 44 bd aa e0 fd 3d
       -0.20513764 -0.016560644 -0.048073962 0.12396367
0000a0 b6 03 f3 bd 6d 92 45 3e e3 cd 6c be ec e6 6a 3d
       -0.11865942 0.19294138 -0.23125415 0.05734913
0000b0 c5 62 66 be 47 ba 0d 3e 0c 9b 4b 3d 9d d5 6f 3e
       -0.22498615 0.1384059 0.04970841 0.23421331
0000c0 fd 23 3f 3e bc 76 4d 3d 03 f4 6a be 2d 93 69 3e
       0.18666072 0.050162062 -0.22944646 0.2281005
0000d0 65 16 1b 3e e2 0e bd bd 6d 0a 08 3d d9 21 95 be
       0.15145262 -0.09231354 0.033213068 -0.29127386
0000e0 76 a8 bc 3d d0 40 2e be d4 be 54 3d ef cd 15 3e
       0.09211819 -0.17016912 0.0519398 0.14629339
0000f0 f6 fe da bd f6 24 5f 3e c5 60 32 3e e8 ee 0d 3c
       -0.10693161 0.21791443 0.17419727 0.008662917
000100 81 37 74 3d 7a 78 40 be f0 54 c7 bc 80 34 5f bc
       0.059623245 -0.18795958 -0.024332494 -0.013623357
000110 1a b2 c8 3c 18 72 d7 3c 48 36 d1 3d ba d9 ef 3a
       0.024498988 0.026299521 0.102154315 0.001829914
000120 f2 e1 0c be 35 ad 52 3e cd d5 07 bd 76 69 25 be
       -0.13758066 0.20573886 -0.03316288 -0.16153511
000130 8c 07 38 3e 58 d7 61 bd ca 1c 05 be 9a d1 c1 3d
       0.17971629 -0.05513701 -0.12999263 0.094638065
000140 f9 a4 44 be 0b 96 ca 3c 45 35 ea 3d 1e 3b 65 be
       -0.19203557 0.02472975 0.114359416 -0.22385833
000150 70 45 27 bc 88 cc 05 be 02 7f 33 bd d9 fc 54 3e
       -0.010209426 -0.13066304 -0.043822296 0.20799579
000160 d9 b6 41 3e b2 57 b7 bd 80 52 37 3e 2b 7c f3 be
       0.18917407 -0.089522734 0.17902565 -0.4755567
000170 ae 26 0b 3e be 97 77 3d 90 61 98 3e 6b 50 03 3e
       0.13588974 0.060447447 0.29761934 0.12823646
000180 1e 93 c6 bd 14 a4 7b 3e 43 62 bd 3d f0 38 89 bb
       -0.09696029 0.2457431 0.092472576 -0.0041876957
000190 bd 44 46 3e e4 3f 36 3d 36 db 58 be 46 fd b7 3d
       0.19362159 0.044494525 -0.21177372 0.08983855
0001a0 ce 02 e6 be 40 fd 0a 3c 8d 1b a8 be 54 40 e6 3e
       -0.44924015 0.008483231 -0.3283352 0.44970953
0001b0 be 7d 7b be f8 de 49 3f 78 8d a5 3d c8 4b a7 3e
       -0.24559686 0.7885585 0.08083624 0.32675004
0001c0 27 d7 c5 3d 28 be 93 3c 2a d2 0f be e7 0f 25 be
       0.09660178 0.01803501 -0.14045015 -0.16119348
0001d0 e0 c3 90 3d 1d ff 80 be 6a 82 f9 3d e6 82 af 3d
       0.0706861 -0.25194636 0.12183078 0.08569889
0001e0 b6 a2 c9 3d e5 44 58 3e fa e8 1e 3f 63 24 47 3e
       0.09845488 0.21120031 0.62074244 0.19447474
0001f0 93 2c 2b 3e 5b 0e 88 be 13 64 a3 3e 00 22 10 3f
       0.16716222 -0.26573452 0.31912288 0.5630188
000200 69 94 2d bd ac 0a 03 be 64 ef b4 3d e6 80 1d be
       -0.042377863 -0.1279704 0.08834723 -0.15381202
000210 f9 02 28 3e 34 bf 16 3e f8 5a 12 be 79 34 ca 3c
       0.16407384 0.14721376 -0.14292514 0.024683224
000220 32 1a 83 3d 80 31 ac 3b b2 03 9f bd 00 c1 d8 ba
       0.06401481 0.0052549243 -0.07764377 -0.0016537011
000230 33 d5 8d 3e 1c 10 22 bd 05 a3 27 3f c2 45 18 bf
       0.2770172 -0.039566144 0.65483123 -0.5948144
000240 e1 aa 0b 3e 36 e6 14 be 84 cc 5a bd ce 3a 50 be
       0.13639404 -0.14540944 -0.053417698 -0.20334932
000250 40 63 19 be b5 8e 0d be 2c 5e 63 3d d4 1b 1c be
       -0.14979267 -0.1382397 0.05550973 -0.1524499
000260 8c ab 27 be cd dc 29 3e 05 b8 35 3e 60 46 e2 bb
       -0.16374034 0.16588135 0.17745979 -0.006905362
000270 55 02 58 3e db b6 0a 3e d2 ee f1 3d 84 53 45 3d
       0.2109464 0.13546316 0.118131295 0.04817535
000280 cc 2e 5c be da 49 de 3d
       -0.21502227 0.1085393

bias f4 [9]
000000 1f a6 43 3e 4d 4b 49 3e a9 93 29 3e 47 b4 84 3c
       0.19106339 0.19657631 0.16560234 0.016199244
000010 e0 96 99 be 28 05 74 3f 01 ee 9f bc 86 4a 18 bf
       -0.2999792 0.9532037 -0.019522669 -0.59488714
000020 2b c6 46 3e
       0.19411533

weight f4 [3, 9]
000000 c0 c3 c9 3c fa 95 d9 3e 00 49 8f bb 23 1c 80 be
       0.024629474 0.42497236 -0.004372716 -0.25021467
000010 8e 3d ae bd 67 f1 b0 3e e4 78 d9 be 2d a6 4d be
       -0.085078344 0.34559175 -0.42475045 -0.20082922
000020 68 a7 26 3d b8 26 71 bd f6 41 5d bf 24 70 fc 3d
       0.040686995 -0.058874816 -0.86428773 0.123260766
000030 fa ea ef be 13 4e 4b be 7f d4 01 bf 30 1a 0a 3f
       -0.4685896 -0.19854002 -0.5071487 0.5394621
000040 8d a9 22 3e 12 5b 62 3e 35 41 a9 3e 1a 02 d2 3d
       0.15884991 0.22105053 0.33057562 0.10254307
000050 cb d7 6f be d7 98 82 be 4e e1 26 3d 2a d2 08 bf
       -0.23422162 -0.25507233 0.04074221 -0.53445685
000060 45 95 d4 bd 72 cb c9 3e e0 ed 3d 3d
       -0.103800334 0.3941303 0.046369433

bias f4 [3]
000000 8f 11 24 3f 9e ee e2 3e 62 0f ef be
       0.6408929 0.44322675 -0.46691424
