nn classification on IRIS dataset (good result)/iris-model.pth (torch, 3121 bytes, 4 tensors)

weight f4 [8, 4]
00000000: 20d8 c93e 2a76 5d3e 36e4 7e3e 4490 b1bd
00000010: 5dde 303e 9f08 debe 51a5 ed3e 0fb4 353f
00000020: 55c0 fe3e 1115 c73e b05e 17bf a743 4fbf
00000030: 6fd6 e13e 319c 043f 2096 1c3f d1ef 22bd
00000040: 9cf0 e03e 3096 183f 7824 0ebf d812 2cbf
00000050: 558a adbe 90ec 923c e521 093f 4899 253f
00000060: 7bdd d23e 7737 c03e abbc 3dbf 9ce7 68bf
00000070: cdad cc3d 24d7 dbbe 9d96 8c3d 38a6 e83e
0.39422703 0.21627107 0.24891743 -0.086700946 0.17272325 -0.43365952 0.4641519 0.7097787
0.49756113 0.3888326 -0.59128857 -0.80962604 0.44108912 0.5180083 0.6116657 -0.039779488
0.4393357 0.5960417 -0.55524397 -0.67216253 -0.338946 0.017935067 0.53567344 0.64687014
0.411846 0.37542316 -0.7411601 -0.9097841 0.09994087 -0.42937577 0.06864665 0.45439315

bias f4 [8]
00000000: 7c97 273e 53be 1dbf 6433 3e3f d62c 513e
00000010: 396c 543d dcff d8be 33f3 243f 6d53 34be
0.1636638 -0.61618537 0.74297166 0.2042726 0.05186102 -0.42382705 0.6443359 -0.1760995

weight f4 [3, 8]
00000000: 5a42 b9bb 44ce 8dbf b94d 333f 6ea6 253e
00000010: 0511 2b3f 1fe9 83bf 6b01 233f 31b2 85be
00000020: 9ec2 853e ed72 79be 8400 1e3d 4e93 003f
00000030: 5ab4 403e 86bc 12bf 8619 25bf edc3 9fbe
00000040: 637b c2bd 3c30 283f a831 a7bf cbad eb3e
00000050: 88d9 7ebf fec4 4f3f eb2d 94be 98f1 223d
-0.0056536617 -1.1078572 0.7004047 0.16176769 0.66822845 -1.0305518 0.6367404 -0.26112512
0.26125044 -0.24360247 0.03857471 0.5022477 0.18818799 -0.57318914 -0.6449207 -0.31204167
-0.094961904 0.656986 -1.3062029 0.4603103 -0.99550676 0.8115996 -0.28941283 0.039781183

bias f4 [3]
00000000: b548 c93c 397f 0b3f 8922 b8bd
0.024570802 0.54491 -0.08990962
